model_cnn.pth (torch, 434831 bytes, 8 tensors)

conv1.weight f4 [6, 3, 5, 5]
0	0x3da00861	0.07814098
1	0x3d1b76ac	0.03795497
2	0xbc0045c5	-0.007829134
3	0x3dbd3bef	0.09239947
4	0x3d4e68ec	0.05039303
5	0x3dbb5659	0.09147329
6	0x3d0d15e3	0.0344447
7	0xbcaa4c34	-0.02078829
8	0xbe0e65ba	-0.13905993
9	0xbe0dc214	-0.13843566
10	0xbd1d184a	-0.038353242
11	0xbdefbb07	-0.117055945
12	0xbe10e88e	-0.14151213
13	0xbd53844f	-0.05163985
14	0xbd86ae85	-0.06576256
15	0xbd4eb8f7	-0.050469365
16	0xbdc77f5b	-0.09741088
17	0xbe3d446a	-0.18483129
18	0xbcd23e82	-0.025664572
19	0xbd05bee2	-0.032652743
20	0xbd1b7ddb	-0.037961822
21	0xbdd2865c	-0.10279533
22	0xbe0f1a36	-0.13974842
23	0xbd8a5ef7	-0.06756394
24	0xbdeab33d	-0.11459968
25	0xbe22fca5	-0.15916689
26	0xbd64d34b	-0.055865567
27	0xbd9eaa6e	-0.07747351
28	0xbd80d541	-0.06290675
29	0xbd8a4977	-0.067522936
30	0x3c08aa17	0.008341334
31	0xbd836e43	-0.06417515
32	0xbd428934	-0.04749413
33	0x3ce213b7	0.027597291
34	0x3bb4ed09	0.005521421
35	0xbd0c2284	-0.034212604
36	0xbdc3ffb1	-0.09570254
37	0x3d9a4d90	0.07534325
38	0xbd9f776b	-0.07786449
39	0x3dcff8d2	0.101548806
40	0xbdd6ee59	-0.1049468
41	0x3d0d8267	0.03454819
42	0x3c821475	0.015878895
43	0xbd71d9da	-0.05904565
44	0xbda62cf8	-0.08114046
45	0xbdb66a3a	-0.0890698
46	0x3bdbdbad	0.006709537
47	0x3b2b0b2b	0.0026099186
48	0xbcb0adb4	-0.021567203
49	0x3d834e2a	0.06411393
50	0xbda14c17	-0.07875841
51	0x3cd5d829	0.02610405
52	0xbbb19f82	-0.005420626
53	0xbcd7056e	-0.026247706
54	0x3d375d54	0.04476674
55	0x3dc68ef2	0.096952334
56	0x3de38df4	0.1111106
57	0x3e6d0b83	0.23148923
58	0x3e454a02	0.19266513
59	0x3e3303a0	0.17481852
60	0x3d8631c8	0.06552464
61	0x3e88bd3c	0.26706874
62	0x3e4cff1a	0.20019189
63	0x3e5c14e8	0.2149235
64	0x3d06bec8	0.032896787
65	0x3e7735d6	0.2414163
66	0x3da666aa	0.0812505
67	0x3e3000cb	0.17187802
68	0x3e02e475	0.12782462
69	0x3d3699c3	0.044580232
70	0xbbb72534	-0.0055891518
71	0x3e08ce44	0.13359934
72	0x3da5daea	0.08098395
73	0x3e021cd5	0.12706311
74	0xbca4fe74	-0.020140864
75	0xbca671e0	-0.020317972
76	0x3b075b1c	0.002065367
77	0xbe0a6624	-0.13515526
78	0xbde1974f	-0.11015188
79	0xbd3bcc2c	-0.04584901
80	0x3cd0b4c7	0.025476826
81	0x3db77946	0.08958678
82	0x3d9d1484	0.07669929
83	0xbd09c8a6	-0.03363862
84	0x3c7f74bc	0.0155917965
85	0x3dca7bee	0.09886919
86	0x3cf802b5	0.030274728
87	0x3e1fc953	0.15604143
88	0xbbd31d94	-0.006442735
89	0x3d808bef	0.0627669
90	0x3e37a633	0.17934494
91	0x3e0920dd	0.13391443
92	0x3de79904	0.11308482
93	0xbd271bae	-0.04079788
94	0x3d0dd6f9	0.034628842
95	0x3e15d0be	0.1463041
96	0x3df17a1c	0.11790869
97	0x3d946d28	0.072473824
98	0x3e1180ea	0.14209333
99	0x3dc29a43	0.09502079
100	0xbdca099e	-0.098651156
101	0xbdcd013d	-0.10010002
102	0x3d515160	0.051102996
103	0x3ceeed6b	0.029165944
104	0x3ccda473	0.02510283
105	0x3dca49b4	0.09877339
106	0xbdc597ce	-0.09648095
107	0xbc8bba10	-0.017056495
108	0xbe897391	-0.26845983
109	0xbd89576e	-0.06706129
110	0x3c02ef8a	0.007991681
111	0xbc4fdbe5	-0.012686704
112	0xbe1e3d34	-0.15453035
113	0xbe965489	-0.2936137
114	0xbe7e0380	-0.24806023
115	0xbd37bca1	-0.044857625
116	0xbd700ffd	-0.058608998
117	0xbc3f3a52	-0.0116716195
118	0xbe9f4edc	-0.31114852
119	0xbe804213	-0.2505041
120	0x3c97a568	0.018511489
121	0xbde3a6b4	-0.111157805
122	0xbd2cfd5c	-0.04223381
123	0xbe46cb5f	-0.19413517
124	0xbe6458de	-0.22299525
125	0x3e03cda5	0.12871416
126	0x3e2bcf6f	0.16778348
127	0x3d444464	0.047916785
128	0xbabac0a5	-0.0014248086
129	0xbccc6e78	-0.02495502
130	0x3d47c175	0.04876848
131	0x3e675a39	0.22593011
132	0x39229039	0.00015503251
133	0xbd358ae6	-0.044321917
134	0xbcffbb34	-0.031217195
135	0x3e5ae9dd	0.21378274
136	0x3e58f9e6	0.21189079
137	0x3c03db45	0.008047883
138	0xbe4addd0	-0.19811177
139	0xbd2d017f	-0.042237755
140	0x3d3e459a	0.046453096
141	0x3e4a36e7	0.19747506
142	0xbd6e9d8f	-0.05825573
143	0x3ca5616f	0.020188062
144	0xbd370bb7	-0.044688907
145	0x3c4dd3a9	0.012562671
146	0x3d892742	0.06696941
147	0xbc867313	-0.016412294
148	0xbd4ae6e3	-0.049536597
149	0xbd18bd77	-0.037290063
150	0xbd35c4e4	-0.044377223
151	0x3dd03259	0.10165853
152	0x3e148d23	0.14506964
153	0xbd0df988	-0.0346618
154	0xbc69b182	-0.014263513
155	0xbd4e7c0b	-0.050411265
156	0x3c8a2165	0.016861627
157	0x3e2bb6b5	0.16768916
158	0x3e10142e	0.14070198
159	0x3e321f4a	0.17394748
160	0xbd54df35	-0.05197068
161	0xbd896cbe	-0.06710194
162	0x3d737e6d	0.05944674
163	0x3e2cef8c	0.16888255
164	0xbd0cdc71	-0.034389917
165	0xbd77f973	-0.060540628
166	0x3c85d93a	0.016338933
167	0xbd185340	-0.03718877
168	0xbe67a463	-0.22621302
169	0x3ccb6fe1	0.024833621
170	0x3e1d49fc	0.15360254
171	0xbe01828a	-0.12647453
172	0xbd37b3fe	-0.04484939
173	0xbe086041	-0.13317968
174	0xbc95e84c	-0.018299244
175	0x3de7a68c	0.11311063
176	0xbc647202	-0.013943197
177	0x3d716ad5	0.058939774
178	0x3d0fdb76	0.035121404
179	0x3cbc6d21	0.023001255
180	0x3cc650bb	0.024208417
181	0x3d416795	0.047217924
182	0x3c87011d	0.016480023
183	0x3b2933cd	0.002581823
184	0x3e1d3fb2	0.15356329
185	0x3d1c023f	0.03808808
186	0x3d982ce3	0.074304365
187	0x3cdb53d1	0.026773365
188	0x3d8de0be	0.06927632
189	0x3d37923b	0.04481719
190	0xbe323b09	-0.17405333
191	0xbe311d1b	-0.17296259
192	0xbdf486ba	-0.119397596
193	0xbe2b8f08	-0.16753781
194	0xbdf94988	-0.12172228
195	0xbd049fd7	-0.032378998
196	0xbd75e132	-0.060029216
197	0xbe87360c	-0.26408422
198	0xbe5a0d15	-0.21294053
199	0xbe4f3b18	-0.20237386
200	0x3d0f4c73	0.034985017
201	0x3ddaff11	0.10693181
202	0xbb00c89c	-0.0019650823
203	0x3d988856	0.07447879
204	0xbdaf3385	-0.085547484
205	0xbcfa3f64	-0.030547805
206	0x3d82f530	0.06394422
207	0xbd141abb	-0.036158305
208	0x3e2d798d	0.16940899
209	0xbd2069f0	-0.03916353
210	0xbd2f4563	-0.04279078
211	0x3cc42152	0.02394167
212	0x3d816c5b	0.06319495
213	0x3d8792ac	0.06619772
214	0x3e546b21	0.20743991
215	0xbdd84ebc	-0.105618924
216	0xbd248ac2	-0.040171392
217	0xbe34ee56	-0.17669043
218	0xbdecf9f7	-0.115711145
219	0x3d6b9655	0.057516415
220	0x3e20c7ca	0.15701213
221	0x3c923c25	0.017850945
222	0xbdd90c61	-0.10598064
223	0x3d1caa7d	0.038248528
224	0xbd2247eb	-0.039619368
225	0xbde5a043	-0.11212208
226	0xbd4e4ef1	-0.050368253
227	0xbdaebe0f	-0.085323445
228	0xbc08cac7	-0.008349127
229	0xbd214f5f	-0.039382335
230	0xbdc56156	-0.09637706
231	0x3998f1de	0.00029171904
232	0x3d855b65	0.06511573
233	0x3d32bfe4	0.043640032
234	0x3c20f00d	0.009822858
235	0xbd68ccf9	-0.056836102
236	0xbbe15da9	-0.0068776202
237	0xbd1d5229	-0.038408432
238	0x3cb077e9	0.021541553
239	0x3d1a5540	0.037678957
240	0xbd0b4c15	-0.034008104
241	0x3d64daff	0.055872913
242	0x3e375815	0.17904694
243	0x3def2c8c	0.116784185
244	0x3dfa17eb	0.12211593
245	0x3e1ddebb	0.15416996
246	0x3d9fa2b5	0.07794706
247	0x3dc9d788	0.098555624
248	0xbd3dc902	-0.046334274
249	0x3d5a76eb	0.053336065
250	0xbcc3ceb6	-0.023902278
251	0xbc7e4dc5	-0.015521471
252	0x3d4ae523	0.049534928
253	0x3d2a3b42	0.04156042
254	0xbdde9b73	-0.10869493
255	0x3c77a553	0.0151151

conv1.bias f4 [6]
0	0xbd48cb7c	-0.049022183
1	0x3dc8ebd8	0.098106086
2	0x3cd28de9	0.025702434
3	0xbe81cc64	-0.2535125
4	0x3c6c9d0e	0.014441742
5	0x3c8d8cc2	0.017279033

conv2.weight f4 [16, 6, 5, 5]
0	0x3e16c304	0.1472283
1	0x3db0fec2	0.08642341
2	0x3e2ef6f9	0.170864
3	0x3d51c04b	0.051208775
4	0x3de1dc8a	0.110283926
5	0x3955dec0	0.00020396244
6	0x3d6be17e	0.057588093
7	0x3b0b28cf	0.002123404
8	0xbcbe888a	-0.023258466
9	0x3def5e92	0.1168796
10	0x3dc7bbb0	0.097525954
11	0x3d135ba7	0.03597608
12	0xbc49dd11	-0.012320773
13	0x3dcf7658	0.10129994
14	0x3bfe71b0	0.0077650174
15	0xbc3cc4ad	-0.011521501
16	0x3cce4f25	0.025184223
17	0xbdb5afad	-0.08871398
18	0xbdf271bf	-0.118381016
19	0xbcae98e2	-0.021313135
20	0xbd9316e9	-0.07182104
21	0x3d65d8b8	0.056114882
22	0xbd8fffef	-0.07031237
23	0xbcb4513b	-0.02201139
24	0xbdeb3563	-0.11484792
25	0x3dbb5594	0.09147182
26	0x3e10fa1a	0.14157906
27	0xbd99807d	-0.0749521
28	0xbe0cbd76	-0.13744149
29	0x3dbb1fc0	0.09136915
30	0xbd814085	-0.06311134
31	0xbd412bb0	-0.047160804
32	0xbda68934	-0.08131638
33	0xbe9d842b	-0.307649
34	0xbcbbc6e7	-0.022921992
35	0x3c800999	0.015629577
36	0x3d5b6fb5	0.05357333
37	0x3e76c7f9	0.24099721
38	0xbe425167	-0.18976365
39	0xbe006f48	-0.1254245
40	0x3dac2194	0.08404842
41	0xbe19e0b6	-0.15027127
42	0x3e9d1c0d	0.30685464
43	0xbdef961c	-0.11698553
44	0xbe78327f	-0.24238013
45	0x3d25c3d6	0.040469967
46	0xbe0c37f0	-0.13693213
47	0x3e6f9ac4	0.23398882
48	0x3ce4d5e4	0.027934022
49	0xbe6f45c2	-0.23366454
50	0x3cb0f2e3	0.021600192
51	0x3dca0db5	0.09865896
52	0x3ddf5ac3	0.10905983
53	0x3e2877ed	0.16451998
54	0x3e213c31	0.15745617
55	0xbe0d6c06	-0.13810739
56	0xbe1c2702	-0.15249255
57	0x3cf4dfda	0.029891897
58	0x3d0d441f	0.034488793
59	0x3e031313	0.12800245
60	0x3bef1d3e	0.007297187
61	0x3959c294	0.00020767219
62	0x3d2c6b17	0.042094316
63	0x3d328cf1	0.043591443
64	0xbd48d4bf	-0.049031015
65	0xbd13b5a0	-0.036061883
66	0xbcd2df9d	-0.025741393
67	0xbe3467dd	-0.17617746
68	0xbdaac5a1	-0.08338476
69	0x3d4ddbf3	0.050258588
70	0xbe23d2f3	-0.1599844
71	0xbc841e83	-0.01612783
72	0xbe30741b	-0.1723179
73	0xbd867854	-0.065659195
74	0x3d43cb1d	0.047801126
75	0x3c308f87	0.010776407
76	0x3cf40368	0.02978678
77	0x3d51571e	0.051108472
78	0x3dd2507a	0.10269256
79	0x3d616f26	0.05503764
80	0xbce4dbc8	-0.027936831
81	0xbdfd159a	-0.12357636
82	0xbd846a17	-0.064655475
83	0x3dca7a58	0.098866165
84	0x3e184a6b	0.14872138
85	0xbd89a28e	-0.06720458
86	0xbd9f53c7	-0.07779651
87	0xbd116d55	-0.035504658
88	0x3db3cd8b	0.087794386
89	0x3ddff737	0.10935824
90	0xbdabfe85	-0.08398155
91	0xbd9ea45c	-0.07746193
92	0xbd9ea160	-0.077456236
93	0x3d269563	0.04066981
94	0x3e21b8ac	0.15793103
95	0x3dc6f1d9	0.097140975
96	0x3c86a5b0	0.016436428
97	0xbd49474e	-0.049140267
98	0xbcedebe8	-0.029043153
99	0x3d3d3051	0.046188656
100	0x3d465939	0.048424933
101	0x3d7f638b	0.06235079
102	0x3daa8d92	0.08327784
103	0x3d94e945	0.07271055
104	0xbd974a2a	-0.073871925
105	0x3c71e8b6	0.014764955
106	0x3de47592	0.11155237
107	0x3e2efff8	0.17089832
108	0x3d8e6633	0.06953087
109	0x3d3fe9fa	0.046853997
110	0xbd4e75cf	-0.05040532
111	0x3e3d579c	0.18490452
112	0x3e07a790	0.13247514
113	0xbc89abed	-0.016805613
114	0x3dd7a7a7	0.10530024
115	0xbca0300b	-0.019554159
116	0x3df6ca7a	0.12050338
117	0x3b132f63	0.0022458665
118	0x3d74ca75	0.05976339
119	0x3dfc0788	0.12306124
120	0xbe30d765	-0.17269666
121	0xbd978e15	-0.07400147
122	0xbe1904c8	-0.1494323
123	0x3da12318	0.07868022
124	0x3db65012	0.08901991
125	0x3e3555f1	0.17708565
126	0x3d2afb52	0.041743584
127	0xbcddf0c3	-0.027092343
128	0x3d974dd8	0.073878944
129	0xbd05202d	-0.03250139
130	0x3e06e68e	0.13173887
131	0x3e24bf7b	0.16088669
132	0xbe4702e5	-0.19434698
133	0xbe2e9c07	-0.17051707
134	0x3d8caeda	0.06869288
135	0x3e5e2ea3	0.21697478
136	0x3e75fb05	0.24021538
137	0xbebac246	-0.36476344
138	0xbe8c0cd7	-0.27353546
139	0x3ce9de64	0.028548427
140	0x3e9a0a3b	0.3008593
141	0x3dd0393e	0.10167168
142	0xbdd6d0b2	-0.10489024
143	0xbed3fb33	-0.41402587
144	0xbec68527	-0.38773462
145	0x3e3ff2b8	0.18744934
146	0x3bab9bf4	0.005237097
147	0x3de25fbc	0.11053416
148	0xbe6c3fe7	-0.23071252
149	0xbe7ada15	-0.24497254
150	0x3e1ce20f	0.1532061
151	0xbd716df3	-0.058942746
152	0xbd70bac0	-0.05877185
153	0xbe53bd22	-0.20677617
154	0xbe403c60	-0.18773031
155	0x3cfbdf51	0.030746134
156	0xbde45a71	-0.11150063
157	0xbd737596	-0.05943831
158	0xbe6509b5	-0.22366984
159	0xbe06e43b	-0.13173
160	0x3df61356	0.12015407
161	0xbe2b35b8	-0.16719711
162	0xbe35fb4e	-0.17771646
163	0xbdea9331	-0.11453856
164	0xbd0927da	-0.03348527
165	0x3e374e78	0.17901027
166	0xbde20596	-0.11036222
167	0xbe7e733a	-0.24848643
168	0xbd55e1fb	-0.052217465
169	0x3d67d430	0.056598842
170	0x3de276e2	0.11057831
171	0xbe222dbe	-0.15837762
172	0xbe29e142	-0.16589835
173	0xbdece71e	-0.115675196
174	0x3dd6c303	0.10486414
175	0xbd9b7025	-0.07589749
176	0x3a1e0a92	0.0006028797
177	0xbd79256b	-0.0608267
178	0xbd6551fc	-0.05598639
179	0x3bdb9ccf	0.0067020427
180	0xbdf3f5fa	-0.11912151
181	0xbdfc8a6c	-0.123310894
182	0x3d730564	0.059331313
183	0xbd573cfd	-0.052548397
184	0xbd6043ad	-0.05475204
185	0xbd244963	-0.04010905
186	0x3a0413ed	0.00050383696
187	0xbea83951	-0.3285623
188	0x3d841b34	0.06450501
189	0x3da32906	0.07966809
190	0x3d823980	0.063586235
191	0x3cb6dd15	0.022322217
192	0xbed9eb9a	-0.42562562
193	0xbe0ddc0a	-0.1385347
194	0xbb1fd5ec	-0.0024388982
195	0x3d16e759	0.036841724
196	0xbd33befa	-0.0438833
197	0x3dd55938	0.10417408
198	0xbc176a4d	-0.009241653
199	0xbd39cced	-0.045361448
200	0x3df419f1	0.119190104
201	0xbe47d4bb	-0.19514744
202	0x3caaa391	0.020829948
203	0x3d2d72b6	0.042345725
204	0xbde0c54e	-0.10975133
205	0x3e0faab7	0.14029966
206	0x3df5a3eb	0.119941555
207	0xbda119eb	-0.078662716
208	0xbdf17079	-0.117890306
209	0xbd47dde6	-0.048795603
210	0x3c1fca8f	0.009752884
211	0x3e4da4d4	0.20082408
212	0x3e4ccd67	0.2000023
213	0xbe68ff5d	-0.22753663
214	0xbe896318	-0.26833415
215	0xbd24b641	-0.040212873
216	0xbe7b5226	-0.24543056
217	0x3e5d933d	0.21638198
218	0x3e284dd0	0.16435933
219	0xbe207995	-0.1567138
220	0xbd707cc1	-0.058712725
221	0xbde4ee62	-0.111782804
222	0xbd4149e9	-0.047189627
223	0x3db8931e	0.090124354
224	0xbd2eccbb	-0.042675715
225	0xbdf37453	-0.118874215
226	0xbd62ba87	-0.055353668
227	0x3ad79def	0.0016450266
228	0xbc9b62d3	-0.018968021
229	0x3d97f404	0.07419589
230	0xbda59bf3	-0.080863856
231	0x3d5e636d	0.05429404
232	0x3c1abea4	0.009444866
233	0xbd24001c	-0.040039167
234	0x3d378d74	0.044812635
235	0xbde8c85f	-0.11366343
236	0x3da5ab93	0.08089366
237	0xbd17097a	-0.036874272
238	0xbd290ea0	-0.041273713
239	0x3bf1a0a9	0.0073738885
240	0xbdc6ff86	-0.09716706
241	0xbdc3196c	-0.09526333
242	0x3d182c14	0.03715141
243	0x3d8eb0e2	0.069673315
244	0xbda24646	-0.0792356
245	0xbde9ffef	-0.114257686
246	0xbd43413f	-0.047669645
247	0xbd84cad1	-0.06483997
248	0x3d78a868	0.06070748
249	0x3da126bc	0.07868716
250	0x3cca6cde	0.024710115
251	0x3e28a442	0.1646891
252	0xbdeb4e34	-0.114895254
253	0x3d0fd98a	0.03511957
254	0x3de78828	0.113052666
255	0xbd6798f5	-0.056542356

conv2.bias f4 [16]
0	0xbee2f793	-0.4432951
1	0x3e751cb5	0.23936732
2	0x3d754fef	0.059890684
3	0x3e389558	0.1802572
4	0xbe10f66f	-0.14156507
5	0x3d4d4c92	0.05012185
6	0x3cf3b2e7	0.029748393
7	0x3e7b85af	0.24562715
8	0xbc54bb89	-0.012984165
9	0x3efb46cb	0.49077448
10	0xbbef35af	-0.0073001008
11	0x3eeb205f	0.45923135
12	0xbde74482	-0.11292364
13	0xbe681db9	-0.22667588
14	0x3d2da20c	0.042390868
15	0x3dddef10	0.10836613

fc1.weight f4 [256, 400]
0	0xba9d020f	-0.0011978763
1	0xbc899d8b	-0.016798755
2	0xbd4a53e0	-0.049396396
3	0xbd465ad9	-0.048426483
4	0xbdba5da9	-0.090998955
5	0xbdf5b9e6	-0.11998348
6	0xbd97c9d2	-0.07411541
7	0xbc95ad97	-0.01827125
8	0xbcbf085c	-0.023319416
9	0xbd2c5659	-0.042074535
10	0xbdaa77a3	-0.083236
11	0xbdaf87f0	-0.0857085
12	0xbd9933d9	-0.07480592
13	0x3aae54ee	0.0013300458
14	0xbdad8452	-0.08472504
15	0xbc7226f6	-0.014779797
16	0x3a3f8bbf	0.00073068956
17	0xbd0aad78	-0.03385684
18	0xbcdfba56	-0.027310532
19	0xbdcdc9d3	-0.100482605
20	0xbd02feff	-0.031981464
21	0xba2c9570	-0.0006583547
22	0xbc41f050	-0.01183708
23	0xbd4acdf9	-0.049512837
24	0xbbcfa99d	-0.006337358
25	0xbc9ae4ab	-0.018907866
26	0x3a2049c8	0.000611451
27	0xbd6c8bc0	-0.057750463
28	0xbd4d49aa	-0.05011908
29	0xbb53287f	-0.0032220182
30	0x3b9a60c9	0.0047112447
31	0xbd920e4a	-0.07131632
32	0xbd7e4da5	-0.062085766
33	0x3c8716cb	0.01649036
34	0x3d050fe2	0.03248585
35	0xbc149abb	-0.009070094
36	0xbd4f6f94	-0.05064352
37	0xbda81de4	-0.08208826
38	0x3d1fb190	0.038987696
39	0xbd04ff77	-0.032470193
40	0xbcb488bd	-0.022037858
41	0x3ad3c2c9	0.0016156073
42	0xbbbb2e18	-0.005712282
43	0x3a85eb9e	0.0010217314
44	0xbd4361d2	-0.04770071
45	0xbc416843	-0.011804643
46	0xbd9db590	-0.07700646
47	0x3d366deb	0.04453842
48	0x3c9e0d28	0.019293383
49	0xbdb10d88	-0.08645159
50	0xbd13b96d	-0.036065508
51	0xbc42367d	-0.011853811
52	0x3d29a487	0.04141667
53	0x3d0abfaa	0.03387419
54	0xbd064794	-0.032783106
55	0x3d0f40ef	0.034974035
56	0x3cbd5a4b	0.023114344
57	0x3cfa111b	0.030525735
58	0x3d803394	0.06259838
59	0x3c429569	0.0118764425
60	0x3d6e3aec	0.05816166
61	0x3cd16950	0.025562912
62	0xbd0cdf31	-0.03439254
63	0x3d15bee2	0.036558993
64	0xbd42599a	-0.047448732
65	0xbc3ff87c	-0.011716958
66	0xbca04f26	-0.01956899
67	0x3d1d7b2b	0.03844754
68	0xbd46f4c6	-0.048573278
69	0x3a10e752	0.00055276335
70	0xbd06e29f	-0.032930966
71	0xbb838dd0	-0.004014708
72	0xbcad15ee	-0.021128621
73	0xbd7e5174	-0.0620894
74	0xbdccba0e	-0.099964246
75	0x3d3ae64e	0.045629792
76	0x3d50111e	0.050797574
77	0xbcfa551a	-0.030558158
78	0xbd0692c6	-0.032854818
79	0xbce51fd3	-0.027969277
80	0xbcbb5241	-0.02286637
81	0xbda57425	-0.080787934
82	0xbb470acf	-0.0030371433
83	0xbcd72fe8	-0.02626796
84	0xbca6b720	-0.020350993
85	0x3cb18080	0.021667719
86	0xbd8c8aa6	-0.068623826
87	0x3d0bc49c	0.03412305
88	0xbb1ee243	-0.002424375
89	0xbd913b9f	-0.0709145
90	0xbc93948e	-0.018015172
91	0xbd7f0559	-0.06226096
92	0xbce50a51	-0.02795902
93	0x3d380db6	0.04493495
94	0x3d6d3a60	0.057917
95	0xbcfd720a	-0.030938167
96	0xbcac0825	-0.020999977
97	0xbcd2906f	-0.025703637
98	0x3d38857f	0.045049187
99	0xbcf7fb36	-0.030271154
100	0x3a7517c2	0.00093495485
101	0xbbfa257b	-0.0076338626
102	0xbdb6eb01	-0.08931542
103	0xbc7da029	-0.01548008
104	0xbca794d0	-0.020456702
105	0xbd883811	-0.06651319
106	0xbdc97e27	-0.09838515
107	0xbd200a56	-0.039072357
108	0xbd0d9a31	-0.034570877
109	0xbdaa787d	-0.083237626
110	0xbce87008	-0.028373733
111	0xbd88ef10	-0.066862226
112	0xbd7ebb4f	-0.06219035
113	0xbcec8c9e	-0.028875645
114	0x3d62a818	0.055336088
115	0x3bc6d028	0.0060672946
116	0xbd2885ac	-0.041143104
117	0xbdb9faf0	-0.09081066
118	0xbccee38f	-0.025254993
119	0xbd6a4886	-0.05719807
120	0xbc07c0be	-0.008285699
121	0xbc081084	-0.008304719
122	0xbdabd518	-0.08390254
123	0xbd703bb0	-0.058650672
124	0xbae5b61e	-0.0017525589
125	0x3d425dae	0.04745262
126	0xbda23a1c	-0.0792124
127	0xbd604241	-0.054750685
128	0xbce08af5	-0.02741001
129	0xbdcb9646	-0.09940772
130	0xbd9a42d9	-0.075322814
131	0xbdb41308	-0.087926924
132	0xbce3d09e	-0.027809437
133	0xbd5093e7	-0.0509223
134	0xbd3ede99	-0.046599004
135	0xbd4e1043	-0.050308477
136	0x3bd0f470	0.0063767955
137	0x3cd9b159	0.026573824
138	0x3b8b646e	0.0042539155
139	0xbde99d17	-0.11406916
140	0xbd04648c	-0.03232245
141	0xbd099ede	-0.033598773
142	0xbc5a08aa	-0.01330773
143	0xbd5265df	-0.051366683
144	0xbd86b67b	-0.06577774
145	0xbc8f208d	-0.017471576
146	0x3cbb3e38	0.022856817
147	0xbd7e07ce	-0.062019162
148	0x3c8b6a64	0.017018504
149	0xbc8ab4fb	-0.016932001
150	0xbd1ebc56	-0.03875383
151	0xbc676cec	-0.01412509
152	0xbcbe2718	-0.023212
153	0xbc95324f	-0.018212466
154	0xbce3898f	-0.027775554
155	0xbcdef740	-0.027217507
156	0xbd208168	-0.03918591
157	0xbcff9a61	-0.031201543
158	0xbd63de68	-0.055632025
159	0x3c717dc1	0.014739455
160	0xbd882ef0	-0.066495776
161	0xbda5b106	-0.08090405
162	0xbd2dc6b6	-0.042425834
163	0x3cbc23b7	0.022966249
164	0xbc85bd75	-0.016325692
165	0xbd214a1d	-0.03937732
166	0xbc377920	-0.011198312
167	0xbdc97dff	-0.09838485
168	0xbd7d4cc1	-0.061840776
169	0xbca7df42	-0.0204922
170	0x3d9fd04b	0.078034006
171	0x3c87147a	0.016489256
172	0xbd6b9d81	-0.057523254
173	0xbd46dffb	-0.04855345
174	0x3c810442	0.0157491
175	0xbd245a48	-0.04012516
176	0xbd86b08a	-0.06576641
177	0x3c736551	0.014855699
178	0xbb179883	-0.0023131676
179	0xbd1b575b	-0.037925106
180	0xbdbaa283	-0.09113028
181	0xbcbd7924	-0.023129053
182	0xbc8605b4	-0.016360141
183	0xbd8e6a40	-0.06953859
184	0xbd4d18a0	-0.050072312
185	0xbd9d76c2	-0.07688667
186	0xbcde0157	-0.027100248
187	0xbd3aa676	-0.045568906
188	0xbd443849	-0.04790524
189	0xbd96aad9	-0.07356805
190	0x3d0f3d7f	0.034970757
191	0x3b4729dc	0.003038994
192	0xbd211851	-0.03932983
193	0xbb28abde	-0.0025737206
194	0xbc152569	-0.009103158
195	0xbd6802ad	-0.056643177
196	0x3d596380	0.053073406
197	0xbd3186fa	-0.043341614
198	0x3bd4089f	0.0064707543
199	0x3d902da8	0.07039958
200	0xbcaeb729	-0.021327572
201	0x3d8a43bc	0.067512006
202	0x3bdbbbb6	0.0067057265
203	0xbcab8aa0	-0.020940125
204	0x3c958024	0.018249579
205	0xbda172f1	-0.078832515
206	0xbda477b5	-0.08030645
207	0xbd6efbf3	-0.058345746
208	0xbd1952d9	-0.037432525
209	0xbda1442c	-0.07874331
210	0xbd60a134	-0.054841235
211	0xbd8141ae	-0.063113555
212	0x3d93a139	0.07208485
213	0xbd7cc877	-0.061714616
214	0x3d3d6671	0.046240274
215	0xbc97dd72	-0.01853821
216	0xbd36ef44	-0.044661775
217	0xbd5053e3	-0.05086125
218	0xbd6589e6	-0.056039713
219	0xbc9be9a1	-0.019032301
220	0xbd7f6102	-0.062348373
221	0xbdfe6be4	-0.12422922
222	0xbd4f80b4	-0.05065985
223	0xbe0356f5	-0.1282614
224	0xbd956d66	-0.07296257
225	0xbc86f02a	-0.016471941
226	0xbd0053ef	-0.031330045
227	0x3d753a91	0.059870306
228	0xbd17a947	-0.03702667
229	0xbd490b5d	-0.049083102
230	0xbb8c028e	-0.0042727655
231	0xbbd2a620	-0.006428495
232	0x3cbb78de	0.022884782
233	0x3d0b5c2b	0.034023445
234	0x3ac66963	0.0015137609
235	0x3c8c2a7f	0.017110107
236	0x3cb28d05	0.021795759
237	0x3ce65324	0.028115816
238	0x3c82c678	0.015963778
239	0xbc502e0e	-0.012706293
240	0xbcd5564a	-0.026042122
241	0xbd23586c	-0.039879248
242	0xbd15c909	-0.036568675
243	0xbd4c5b3f	-0.049891707
244	0xbce2e20f	-0.027695684
245	0x3c85c2d0	0.016328245
246	0x3d894d00	0.0670414
247	0xbca9e87f	-0.020740746
248	0x3c9849ea	0.018589932
249	0x3d47a777	0.04874369
250	0xbcf088d6	-0.029362123
251	0x3d11d39e	0.035602205
252	0x3c2aa85e	0.010416118
253	0xbd0cc4b7	-0.03436729
254	0xbc888373	-0.016664242
255	0xbc10f91c	-0.008848455

fc1.bias f4 [256]
0	0xbcaa98e1	-0.020824851
1	0xbe79f9ae	-0.24411651
2	0xbc44e573	-0.012017596
3	0xbd5796e2	-0.052634127
4	0x3e853d34	0.26023257
5	0xbd2bea32	-0.041971393
6	0x3e335b4d	0.17515297
7	0x3e90ee1d	0.28306666
8	0xbc8c9e13	-0.01716522
9	0x3e2072ee	0.15668842
10	0xbd0e9949	-0.034814153
11	0xbd53c5db	-0.05170236
12	0x3e320e9f	0.1738839
13	0xbd092e79	-0.033491585
14	0x3e37830c	0.17921084
15	0xbbd27f04	-0.006423833
16	0xbe82ee90	-0.25572634
17	0xbd9f691a	-0.077837184
18	0xbd8dee0c	-0.069301695
19	0x3dc121f2	0.09430303
20	0xbd22f7c3	-0.039787065
21	0x3ca9cd52	0.020727787
22	0x3dad4b02	0.08461572
23	0xbd0de3cb	-0.03464107
24	0xbd778401	-0.060428623
25	0xbdb1c524	-0.0868018
26	0x3e43a4b5	0.191058
27	0x3eb543b1	0.35403207
28	0x3e32da79	0.17466153
29	0x3e91570b	0.2838672
30	0xbd7aaad1	-0.06119806
31	0xbcb8f1c4	-0.02257622
32	0x398f9eca	0.00027393393
33	0xbdb87429	-0.09006531
34	0xbc02e9f5	-0.00799035
35	0x3e1697f7	0.14706407
36	0xbe719489	-0.23591818
37	0x3e9df8ff	0.3085403
38	0x3e329e7c	0.1744327
39	0x3ecf4da8	0.40488935
40	0xbd549fe4	-0.051910296
41	0xbd3c1083	-0.045914184
42	0x3e70c9cc	0.2351448
43	0xbf0459e2	-0.5169965
44	0x3e160487	0.14650165
45	0x3de19f7a	0.11016746
46	0xbb286b98	-0.0025698896
47	0x3eb4e411	0.3533025
48	0x3e009d42	0.12559989
49	0xbcd90be8	-0.026494935
50	0x3d4718de	0.0486077
51	0xbd67a00e	-0.056549124
52	0xbd3b434a	-0.04571847
53	0x3ef339ef	0.47505137
54	0xbd6dc040	-0.058044672
55	0xbe1045c2	-0.1408911
56	0xbdb8efb2	-0.09030093
57	0x3c56f6c6	0.013120359
58	0x3eef4df3	0.46739158
59	0x3c0bdd3d	0.008536634
60	0x3d7dd37e	0.061969273
61	0xbd409e5d	-0.047026027
62	0x3c541f2f	0.012946888
63	0xbc9e6d3c	-0.019339196
64	0x3e9f569f	0.31120774
65	0xbca94140	-0.020660996
66	0x3d658723	0.05603708
67	0x3e0089a0	0.125525
68	0xbd963236	-0.07333796
69	0x3bd43210	0.0064756945
70	0x3e8742a2	0.26418024
71	0xbcf2ee8c	-0.029654764
72	0x3ec3e9a6	0.38264197
73	0x3d134cb4	0.03596182
74	0x3ea87497	0.3290145
75	0x3c8116c2	0.015757922
76	0xbd18b776	-0.037284337
77	0x3bc65340	0.0060524046
78	0x3e0819b9	0.13291062
79	0xbd3f1825	-0.046653885
80	0xbcf1945c	-0.029489689
81	0xbd978579	-0.07398505
82	0xbd64ed2f	-0.05589026
83	0x3eabebab	0.33578238
84	0xbd108f4f	-0.03529292
85	0x3e40e6e4	0.18838078
86	0xbd93d138	-0.0721764
87	0x3c94b247	0.018151416
88	0xbd8562b1	-0.065129645
89	0x3c940b03	0.018071657
90	0x3eb0e3d2	0.34548813
91	0x3e955546	0.2916662
92	0xbd93ec0c	-0.07222757
93	0x3e9ed1bf	0.310194
94	0xbbb3f012	-0.005491265
95	0xbd564c7e	-0.052319042
96	0x3e093ed3	0.13402872
97	0x3df73eac	0.120725006
98	0xbdf3aaa1	-0.11897779
99	0x3d5da1e1	0.054109458
100	0xbe06ba06	-0.131569
101	0x3dcfcb97	0.101462536
102	0x3ef0b60b	0.47013888
103	0xbd061ea3	-0.03274406
104	0x3b6f832a	0.0036546686
105	0xbb59d2bd	-0.0033237182
106	0xbc09632d	-0.008385462
107	0x3e95dc9d	0.29269877
108	0xbdce8bac	-0.10085234
109	0xbd166e82	-0.036726482
110	0xbceb499d	-0.028721625
111	0xbe9ca19f	-0.30592057
112	0xbd40c9c2	-0.04706741
113	0xbd87d60d	-0.06632624
114	0xbd23e62c	-0.04001443
115	0xbc33adff	-0.010966777
116	0xbefb7f08	-0.49120355
117	0x3e4c1b0b	0.19932191
118	0xbce55b6c	-0.027997695
119	0xbd7c68a3	-0.061623227
120	0xbe4ffc27	-0.20311032
121	0xbd8aa24d	-0.06769238
122	0xbe15d4bf	-0.14631937
123	0x3df69faf	0.12042176
124	0xbc16ce1b	-0.009204413
125	0x3ed5fc6c	0.41794145
126	0x3edcd43e	0.43130678
127	0x3cd17d8f	0.025572566
128	0x3f0c288c	0.5474937
129	0xbd75f46e	-0.06004756
130	0xbd21eb1f	-0.03953087
131	0xbd70da9b	-0.05880223
132	0xbc842c10	-0.016134292
133	0xbd8892f9	-0.06668658
134	0x3e3950c1	0.18097211
135	0x3bf68763	0.0075234636
136	0x3e75a09d	0.2398705
137	0x3ea5f7b6	0.3241555
138	0xbd25dd88	-0.04049447
139	0xbe87a69e	-0.26494306
140	0x3ea7deda	0.3278721
141	0xbe7015f3	-0.23445873
142	0x3dd4bcac	0.10387549
143	0x3e702de0	0.23455
144	0xbd656fa1	-0.05601466
145	0x3ecf20dc	0.40454757
146	0x3def6a73	0.116902255
147	0x3db74068	0.089478314
148	0xbc00533d	-0.007832346
149	0xbd8c04ff	-0.068368904
150	0x3db18259	0.0866744
151	0x3ed79ecd	0.42113343
152	0x3eb298df	0.34882256
153	0x3db9c9f4	0.090717226
154	0xbd6411d2	-0.055681057
155	0xbe307bf1	-0.1723478
156	0x3ddb7ee0	0.10717559
157	0x3e16db1d	0.14732023
158	0x3cb2d86a	0.02183171
159	0xbdb73242	-0.08945133
160	0xbe5409be	-0.20706841
161	0x3edab5f5	0.42716947
162	0x3e61cca2	0.22050717
163	0x3e176252	0.147836
164	0xbd1e6e09	-0.038679156
165	0xbe92abeb	-0.28646788
166	0xbd58eb08	-0.05295852
167	0x3e1bcda3	0.15215163
168	0xbd94a17e	-0.07257365
169	0x3cdaaba0	0.026693165
170	0x3dfb0d89	0.12258441
171	0x3e88b759	0.26702383
172	0x3c3c3806	0.011487966
173	0xbd554fa5	-0.052077908
174	0x3ea69e47	0.3254263
175	0x3e5e3cb7	0.21702848
176	0x3dbbb276	0.09164898
177	0x3ebc723e	0.3680591
178	0x3ea8fcde	0.33005422
179	0x3ef3f216	0.47645634
180	0x3e1f2d30	0.15544581
181	0xbc33d904	-0.0109770335
182	0x3e33b213	0.17548399
183	0xbca28ae0	-0.019841611
184	0x3eaf76af	0.34270236
185	0x3ed2f568	0.41202855
186	0x3d853f75	0.06506244
187	0xbcd95fb7	-0.026534898
188	0xbcf14331	-0.029450985
189	0x3d6b7d68	0.057492644
190	0x3ba024f9	0.00488722
191	0x3eaa6153	0.33277377
192	0x3e523549	0.20528139
193	0x3ec13f84	0.3774377
194	0x3e9e5557	0.30924484
195	0xbda372fd	-0.07980917
196	0x3e7151ae	0.23566315
197	0x3ed73b56	0.42037457
198	0x3e00d44f	0.1258099
199	0x3e8847ef	0.2661738
200	0xbd4605ca	-0.048345365
201	0xbd4e3c6c	-0.05035059
202	0xbd14db69	-0.03634206
203	0x3ed702dd	0.41994372
204	0x3ea478c5	0.3212339
205	0x3ca2b15e	0.019859966
206	0x3e7a81d4	0.24463588
207	0x3e98ce12	0.2984472
208	0x3d253536	0.04033395
209	0xbc24e416	-0.010064146
210	0x3d8bf1e3	0.068332456
211	0xbddf19bf	-0.108935826
212	0x3db5de61	0.08880306
213	0x3eb5fd70	0.3554492
214	0x3e4e9aa2	0.20176175
215	0xbd61cf5c	-0.055129394
216	0xbcd34b9c	-0.02579289
217	0xbd63cf95	-0.055617888
218	0xbd88b9ce	-0.066760644
219	0xbd351974	-0.044213727
220	0xbd8d1a4c	-0.06889781
221	0x3e716930	0.23575282
222	0x3e73da95	0.23813851
223	0xbe9e33c7	-0.30898878
224	0x3d139ab9	0.036036227
225	0x3e4b1806	0.19833383
226	0xbcaae8d0	-0.020862967
227	0xbe8bab63	-0.27279195
228	0xbe746c8d	-0.23869534
229	0xbcf39a1f	-0.029736577
230	0xbd3d6759	-0.046241138
231	0xbd629fd2	-0.055328198
232	0xbd39891e	-0.04529678
233	0xbcf4f428	-0.029901579
234	0xbd80ba94	-0.06285587
235	0xbd0b6f00	-0.034041405
236	0xbc305f1b	-0.010764862
237	0x3f04b775	0.51842433
238	0xbc41a967	-0.011820174
239	0x3e9a0afb	0.30086502
240	0xbc0c72f2	-0.008572327
241	0x3e06ef96	0.13177332
242	0xbc9e571f	-0.019328652
243	0xbc460118	-0.012085222
244	0x3ea9ef92	0.3319059
245	0x3f144bec	0.5792835
246	0x3f0f63d5	0.56011707
247	0x3f03f57f	0.5154647
248	0xbe309bdc	-0.17246956
249	0x3e51d07c	0.20489687
250	0x3c5a7afd	0.013334987
251	0x3ec8b80c	0.39202917
252	0xbe2ae4c7	-0.16688834
253	0xbb0ebc53	-0.002177973
254	0xbe0e7482	-0.13911632
255	0xbd749652	-0.05971367

fc2.weight f4 [10, 256]
0	0xbd952824	-0.07283047
1	0x3d4be665	0.04978027
2	0xbd900582	-0.070323005
3	0x3d2299c8	0.03969744
4	0x3d7fc2da	0.062441684
5	0x3e18e22f	0.14930032
6	0xbe838c04	-0.2569276
7	0xba961091	-0.0011449029
8	0xbc9bc324	-0.019013949
9	0x3de0063d	0.1093869
10	0xbd8774fc	-0.0661411
11	0xbd5fb427	-0.054615166
12	0x3e60650f	0.21913551
13	0xbc229c2a	-0.009924928
14	0xbe296faa	-0.16546503
15	0x3cf6d6c1	0.0301317
16	0xbd1b20a8	-0.03787294
17	0x3c7217aa	0.01477615
18	0x3d682eba	0.056685187
19	0xbeb1bdf6	-0.3471524
20	0x3cdfa6b0	0.027301162
21	0x3d3d6694	0.046240404
22	0xbe768d6e	-0.24077389
23	0x3d8f8b47	0.07008987
24	0xbc18bd38	-0.009322457
25	0x3dd37ccb	0.10326537
26	0xbdced154	-0.1009852
27	0xbe5bb19c	-0.21454471
28	0xbde048ed	-0.109514095
29	0x3dbb46ec	0.09144387
30	0x3d9c255e	0.07624315
31	0x3da40287	0.080082946
32	0xbd39d0a9	-0.04536501
33	0xbdd47134	-0.10373154
34	0x3d8ea1e5	0.06964473
35	0xbe86b82b	-0.26312384
36	0xbcb588b9	-0.022159921
37	0xbe3ba601	-0.18325044
38	0xbd582345	-0.05276801
39	0xbe897c6a	-0.26852733
40	0xbcf73cc9	-0.030180352
41	0x3d23b35e	0.03996598
42	0xbdb0e1dc	-0.08636829
43	0x3e3a2c06	0.18180856
44	0xbe517530	-0.2045486
45	0x3d3b2dc1	0.04569793
46	0x3d061209	0.032732043
47	0xbe927e04	-0.28611767
48	0x3e0ea795	0.13931115
49	0xbcd36480	-0.025804758
50	0x3e11a133	0.14221649
51	0xbd58ad3c	-0.052899584
52	0xbc13de0a	-0.009025106
53	0xbe4e8a4a	-0.2016994
54	0xbc9cd06b	-0.01914235
55	0x3d99b0b8	0.075044096
56	0x3dde89ca	0.10866125
57	0x38288dfa	4.0186547e-05
58	0xbb0d5b86	-0.0021569445
59	0x3beaa975	0.007161314
60	0x3db14ff4	0.08657828
61	0xbdb2e4a8	-0.08735019
62	0xbcf809f0	-0.030278176
63	0xbd143715	-0.036185343
64	0x3e022c8e	0.12712309
65	0xbcffa15f	-0.031204877
66	0x3e093f36	0.1340302
67	0x3dc618b8	0.096726835
68	0x3d175d6d	0.036954332
69	0xbe9c50b0	-0.3053031
70	0x3d9735f4	0.073833376
71	0xbd816801	-0.06318665
72	0xbe297757	-0.16549431
73	0x3ca0916b	0.01960059
74	0x3da366fb	0.07978626
75	0x3ba6417b	0.005073724
76	0xbd2472af	-0.040148433
77	0xbd2b9cbf	-0.04189753
78	0xbe8e8ee7	-0.278434
79	0xbc988081	-0.018615963
80	0xbc12cb1a	-0.008959556
81	0xbc8f1bed	-0.01746937
82	0xbd7a8b84	-0.06116821
83	0x3d327ca8	0.043575913
84	0xbd34bdae	-0.044126205
85	0xbc9793a8	-0.018503025
86	0x3da0f313	0.07858863
87	0xbc4fa500	-0.012673616
88	0xbd1203ec	-0.03564827
89	0xbd5d6735	-0.054053504
90	0x3e59fc98	0.21287763
91	0xbd2106e0	-0.039313197
92	0xbc8f1a2b	-0.017468533
93	0xbcfb6e10	-0.03069213
94	0xbce03dab	-0.027373156
95	0x3c279027	0.01022724
96	0x3d9ca07c	0.076477975
97	0xbceba9fa	-0.028767575
98	0x3bd8c9be	0.0066158464
99	0x3de268eb	0.11055168
100	0xbe01c47c	-0.12672609
101	0xbdb8654d	-0.090036966
102	0xbeeb9402	-0.46011358
103	0xbdb3e4b1	-0.08783854
104	0xbc5600cf	-0.013061716
105	0xbcbcfbe5	-0.023069331
106	0x3cbf38b0	0.02334246
107	0xbe5d00b9	-0.21582307
108	0x3e0ec283	0.13941388
109	0xbbbd179a	-0.005770636
110	0xbcb9d41c	-0.02268415
111	0x3d65e1f7	0.0561237
112	0xbe358ec6	-0.17730245
113	0xbc940860	-0.0180704
114	0x38cee24d	9.864997e-05
115	0xbdabb081	-0.08383275
116	0x3d9a113c	0.075228184
117	0xbbc24595	-0.005928705
118	0x3cfe4fbf	0.031043885
119	0xbd0b96c6	-0.034079336
120	0x3dda1316	0.106481716
121	0x3d94aaa5	0.0725911
122	0xbe1b45fd	-0.15163417
123	0x3e0bc60d	0.13649769
124	0x3d330fa7	0.0437161
125	0xbe602d9b	-0.21892397
126	0xbea3b5c2	-0.31974608
127	0xbc234ecf	-0.00996752
128	0xbe87086a	-0.26373607
129	0x3d85a0a8	0.065247834
130	0x3bbb3f42	0.005714328
131	0x3adf1e89	0.001702265
132	0xbd9d7c30	-0.076897025
133	0xbd366795	-0.044532377
134	0xbdc498c4	-0.0959945
135	0xbdad6c98	-0.08467978
136	0xbc94eccf	-0.018179325
137	0xbd08ccba	-0.033398367
138	0xbd0715e3	-0.032979857
139	0xbda1541b	-0.0787737
140	0xbc4ab0ff	-0.012371301
141	0x3cfc1c22	0.030775134
142	0x3d5995a3	0.05312122
143	0xbe9672be	-0.29384416
144	0x3d895518	0.067056835
145	0x3e060558	0.13087976
146	0xbe30b457	-0.17256294
147	0x3d28d0a8	0.041214615
148	0xbcf58376	-0.029969912
149	0xbd8792e4	-0.06619814
150	0x3db00509	0.085947104
151	0xbe0f9cd6	-0.14024672
152	0xbe8773bc	-0.26455486
153	0xbdf43bb5	-0.11925451
154	0x3c284841	0.010271133
155	0x3d8e2def	0.06942355
156	0x3c51ae1e	0.01279786
157	0x3da43ec8	0.08019787
158	0xbd8c006b	-0.06836017
159	0xbdfe6eba	-0.12423463
160	0x3df9643f	0.121773235
161	0x3ded0121	0.11572481
162	0x3e8e4ed1	0.27794507
163	0x3d9e9750	0.07743704
164	0x3d5ec462	0.054386504
165	0x3e0481a6	0.12940082
166	0x3d5688fa	0.052376725
167	0x3dd522ba	0.10407014
168	0xbd05f8f1	-0.032708112
169	0xbc9299fa	-0.017895687
170	0x3e330c56	0.17485175
171	0x3d0eb201	0.034837727
172	0x3c8905cb	0.016726395
173	0xbb026409	-0.0019896051
174	0x3e43fbe2	0.19139054
175	0xbdc9d7ce	-0.098556146
176	0x3dc44ec6	0.09585337
177	0xbd342b03	-0.04398633
178	0x3dacde5f	0.084408514
179	0xbe9e2394	-0.3088652
180	0x3d6c2b35	0.057658393
181	0x3c82ddcd	0.015974903
182	0x3b346acd	0.0027529479
183	0x3d6747d9	0.056465004
184	0xbc77eac0	-0.015131652
185	0x3d2d2aed	0.042277265
186	0xbe9e485f	-0.3091459
187	0x3da95234	0.08267632
188	0xbd884d2c	-0.06655344
189	0x3e2711cd	0.16315384
190	0xbd184ed1	-0.03718454
191	0xbe35f6e9	-0.1776997
192	0xbdff1146	-0.124544665
193	0xbe02de80	-0.1278019
194	0x3e59eeef	0.21282552
195	0xbc17e756	-0.009271463
196	0x3c60d242	0.013722004
197	0xbd9c4fea	-0.0763243
198	0x3d8ae6fa	0.067823365
199	0x3e4eaab0	0.201823
200	0xbce53817	-0.027980847
201	0xbd10ba01	-0.035333637
202	0xbca464bb	-0.020067563
203	0xbe3c7ff3	-0.18408184
204	0xbbdd3924	-0.0067511965
205	0xbd99978c	-0.074996084
206	0xbe3e13f7	-0.18562303
207	0xbe2457d5	-0.1604913
208	0xbc921f51	-0.017837198
209	0x3cd9df76	0.026595812
210	0xbc71480d	-0.014726651
211	0x3ce54b29	0.02798994
212	0x3cd4da37	0.02598296
213	0xbdce2968	-0.10066491
214	0xbde88843	-0.11354115
215	0xbdb25176	-0.08706944
216	0xbdad05c0	-0.08448362
217	0xbca05a20	-0.019574225
218	0xbd15a89b	-0.036537748
219	0xbe1acdb2	-0.15117529
220	0x3d43cf0c	0.047804877
221	0x3e068268	0.13135684
222	0x3c1084fa	0.008820767
223	0xbd73a103	-0.059479725
224	0xbe1f8e5e	-0.15581653
225	0x3e0e5d9e	0.139029
226	0xbd2aa03e	-0.041656725
227	0x3dcc03c9	0.099616595
228	0xbd16d4d8	-0.036824077
229	0xbcd92df0	-0.026511163
230	0xbcd9889c	-0.026554398
231	0xbd1554b1	-0.03645772
232	0xbd10b3c9	-0.035327706
233	0x3de2e5e5	0.11079005
234	0x3ca33d89	0.019926803
235	0xbd5b4966	-0.053536795
236	0x3d8e6010	0.06951916
237	0xbe997fbe	-0.29980272
238	0xbd58dc2b	-0.052944344
239	0x3e4a602d	0.1976325
240	0x3d3aaac4	0.04557301
241	0x3d81cc90	0.06337845
242	0xbc390375	-0.011292328
243	0x3d4fef82	0.05076552
244	0x3da3197f	0.07963847
245	0xbe854b01	-0.26033786
246	0xbe9907db	-0.29888806
247	0xbe4b3f01	-0.19848253
248	0x3d9e5422	0.07730891
249	0x3db7972d	0.08964381
250	0x3d63f83f	0.055656668
251	0xbe6c92dd	-0.23102899
252	0x3dce22f9	0.10065264
253	0x3cf95011	0.030433686
254	0x3dbddb4e	0.09270345
255	0x3c8d0bd9	0.017217563

fc2.bias f4 [10]
0	0xbeadf935	-0.33979192
1	0xbdbb498c	-0.09144887
2	0xbe882ec6	-0.26598185
3	0x3e3cf4a1	0.18452694
4	0x3ecd86dd	0.40141955
5	0xbdf7ad75	-0.12093631
6	0xbc168af1	-0.0091884
7	0xbdb51a29	-0.0884288
8	0x3df79d1f	0.12090515
9	0x3e318685	0.17336471
